…
[34m[1mwandb[39m[22m: [33mWARNING[39m The save_model argument by default saves the model in the HDF5 format that cannot save custom objects like subclassed models and custom layers. This behavior will be deprecated in a future release in favor of the SavedModel format. Meanwhile, the HDF5 model is saved as W&B files and the SavedModel as W&B Artifacts.
Model: "sequential"
_________________________________________________________________
 Layer (type)                Output Shape              Param #
=================================================================
 conv2d (Conv2D)             (None, 126, 126, 6)       168
 batch_normalization (BatchN  (None, 126, 126, 6)      24
 ormalization)
 max_pooling2d (MaxPooling2D  (None, 63, 63, 6)        0
 )
 dropout (Dropout)           (None, 63, 63, 6)         0
 conv2d_1 (Conv2D)           (None, 61, 61, 16)        880
 batch_normalization_1 (Batc  (None, 61, 61, 16)       64
 hNormalization)
 max_pooling2d_1 (MaxPooling  (None, 30, 30, 16)       0
 2D)
 flatten (Flatten)           (None, 14400)             0
 dense (Dense)               (None, 32)                460832
 batch_normalization_2 (Batc  (None, 32)               128
 hNormalization)
 dropout_1 (Dropout)         (None, 32)                0
 dense_1 (Dense)             (None, 64)                2112
 batch_normalization_3 (Batc  (None, 64)               256
 hNormalization)
 dense_2 (Dense)             (None, 1)                 65
=================================================================
Total params: 464,529
Trainable params: 464,293
Non-trainable params: 236
_________________________________________________________________
Epoch 1/5

































689/689 [==============================] - ETA: 0s - loss: 1.2127 - accuracy: 0.7700
WARNING:absl:Found untraced functions such as _jit_compiled_convolution_op, _jit_compiled_convolution_op while saving (showing 2 of 2). These functions will not be directly callable after loading.
…
