Model: "sequential_4"
_________________________________________________________________
 Layer (type)                Output Shape              Param #
=================================================================
 conv2d_8 (Conv2D)           (None, 126, 126, 6)       168
 batch_normalization_16 (Bat  (None, 126, 126, 6)      24
 chNormalization)
 max_pooling2d_8 (MaxPooling  (None, 63, 63, 6)        0
 2D)
 dropout_7 (Dropout)         (None, 63, 63, 6)         0
 conv2d_9 (Conv2D)           (None, 61, 61, 16)        880
 batch_normalization_17 (Bat  (None, 61, 61, 16)       64
 chNormalization)
 max_pooling2d_9 (MaxPooling  (None, 30, 30, 16)       0
 2D)
 flatten_4 (Flatten)         (None, 14400)             0
 dense_12 (Dense)            (None, 100)               1440100
 batch_normalization_18 (Bat  (None, 100)              400
 chNormalization)
 dropout_8 (Dropout)         (None, 100)               0
 dense_13 (Dense)            (None, 10)                1010
 batch_normalization_19 (Bat  (None, 10)               40
 chNormalization)
 dense_14 (Dense)            (None, 1)                 11
=================================================================
Total params: 1,442,697
Trainable params: 1,442,433
Non-trainable params: 264
_________________________________________________________________
Epoch 1/2
  6/689 [..............................] - ETA: 3:22 - loss: 0.8818 - tn: 49.0000 - fn: 46.0000 - tp: 58.0000 - fp: 39.0000 - accuracy: 0.5573 - recall: 0.5577 - precision: 0.5979 - auc: 0.5987WARNING:tensorflow:Callback method `on_train_batch_end` is slow compared to the batch time (batch time: 0.1903s vs `on_train_batch_end` time: 0.2180s). Check your callbacks.
…
