Model: "sequential_13"
_________________________________________________________________
 Layer (type)                Output Shape              Param #
=================================================================
 conv2d_26 (Conv2D)          (None, 126, 126, 6)       168
 batch_normalization_52 (Bat  (None, 126, 126, 6)      24
 chNormalization)
 max_pooling2d_26 (MaxPoolin  (None, 63, 63, 6)        0
 g2D)
 dropout_24 (Dropout)        (None, 63, 63, 6)         0
 conv2d_27 (Conv2D)          (None, 61, 61, 16)        880
 batch_normalization_53 (Bat  (None, 61, 61, 16)       64
 chNormalization)
 max_pooling2d_27 (MaxPoolin  (None, 30, 30, 16)       0
 g2D)
 flatten_13 (Flatten)        (None, 14400)             0
 dense_39 (Dense)            (None, 100)               1440100
 batch_normalization_54 (Bat  (None, 100)              400
 chNormalization)
 dropout_25 (Dropout)        (None, 100)               0
 dense_40 (Dense)            (None, 10)                1010
 batch_normalization_55 (Bat  (None, 10)               40
 chNormalization)
 dense_41 (Dense)            (None, 1)                 11
=================================================================
Total params: 1,442,697
Trainable params: 1,442,433
Non-trainable params: 264
_________________________________________________________________
Epoch 1/4




















































689/689 [==============================] - ETA: 0s - loss: 0.3630 - tn: 9218.0000 - fn: 1716.0000 - tp: 9269.0000 - fp: 1844.0000 - accuracy: 0.8385 - recall: 0.8438 - precision: 0.8341 - auc: 0.9186Model: "sequential_14"
_________________________________________________________________
 Layer (type)                Output Shape              Param #
=================================================================
 conv2d_28 (Conv2D)          (None, 126, 126, 6)       168
 batch_normalization_56 (Bat  (None, 126, 126, 6)      24
 chNormalization)
 max_pooling2d_28 (MaxPoolin  (None, 63, 63, 6)        0
 g2D)
 dropout_26 (Dropout)        (None, 63, 63, 6)         0
 conv2d_29 (Conv2D)          (None, 61, 61, 16)        880
 batch_normalization_57 (Bat  (None, 61, 61, 16)       64
 chNormalization)
 max_pooling2d_29 (MaxPoolin  (None, 30, 30, 16)       0
 g2D)
 flatten_14 (Flatten)        (None, 14400)             0
 dense_42 (Dense)            (None, 100)               1440100
 batch_normalization_58 (Bat  (None, 100)              400
 chNormalization)
 dropout_27 (Dropout)        (None, 100)               0
 dense_43 (Dense)            (None, 10)                1010
 batch_normalization_59 (Bat  (None, 10)               40
 chNormalization)
 dense_44 (Dense)            (None, 1)                 11
=================================================================
Total params: 1,442,697
Trainable params: 1,442,433
Non-trainable params: 264
_________________________________________________________________
Epoch 1/4
















































87/87 [==============================] - 4s 36ms/steploss: 0.3942 - tn: 18228.0000 - fn: 3493.0000 - tp: 18477.0000 - fp: 3896.0000 - accuracy: 0.8324 - recall: 0.8410 - precision: 0.8259 - auc: 0.9113
Model: "sequential_15"
_________________________________________________________________
 Layer (type)                Output Shape              Param #
=================================================================
 conv2d_30 (Conv2D)          (None, 126, 126, 6)       168
 batch_normalization_60 (Bat  (None, 126, 126, 6)      24
 chNormalization)
 max_pooling2d_30 (MaxPoolin  (None, 63, 63, 6)        0
 g2D)
 dropout_28 (Dropout)        (None, 63, 63, 6)         0
 conv2d_31 (Conv2D)          (None, 61, 61, 16)        880
 batch_normalization_61 (Bat  (None, 61, 61, 16)       64
 chNormalization)
 max_pooling2d_31 (MaxPoolin  (None, 30, 30, 16)       0
 g2D)
 flatten_15 (Flatten)        (None, 14400)             0
 dense_45 (Dense)            (None, 100)               1440100
 batch_normalization_62 (Bat  (None, 100)              400
 chNormalization)
 dropout_29 (Dropout)        (None, 100)               0
 dense_46 (Dense)            (None, 10)                1010
 batch_normalization_63 (Bat  (None, 10)               40
 chNormalization)
 dense_47 (Dense)            (None, 1)                 11
=================================================================
Total params: 1,442,697
Trainable params: 1,442,433
Non-trainable params: 264
_________________________________________________________________
Epoch 1/4












































689/689 [==============================] - ETA: 0s - loss: 0.3607 - tn: 27449.0000 - fn: 5192.0000 - tp: 27763.0000 - fp: 5737.0000 - accuracy: 0.8348 - recall: 0.8425 - precision: 0.8287 - auc: 0.9144Model: "sequential_16"
_________________________________________________________________
 Layer (type)                Output Shape              Param #
=================================================================
 conv2d_32 (Conv2D)          (None, 126, 126, 6)       168
 batch_normalization_64 (Bat  (None, 126, 126, 6)      24
 chNormalization)
 max_pooling2d_32 (MaxPoolin  (None, 63, 63, 6)        0
 g2D)
 dropout_30 (Dropout)        (None, 63, 63, 6)         0
 conv2d_33 (Conv2D)          (None, 61, 61, 16)        880
 batch_normalization_65 (Bat  (None, 61, 61, 16)       64
 chNormalization)
 max_pooling2d_33 (MaxPoolin  (None, 30, 30, 16)       0
 g2D)
 flatten_16 (Flatten)        (None, 14400)             0
 dense_48 (Dense)            (None, 100)               1440100
 batch_normalization_66 (Bat  (None, 100)              400
 chNormalization)
 dropout_31 (Dropout)        (None, 100)               0
 dense_49 (Dense)            (None, 10)                1010
 batch_normalization_67 (Bat  (None, 10)               40
 chNormalization)
 dense_50 (Dense)            (None, 1)                 11
=================================================================
Total params: 1,442,697
Trainable params: 1,442,433
Non-trainable params: 264
_________________________________________________________________
Epoch 1/4










































87/87 [==============================] - 3s 23ms/steploss: 0.3734 - tn: 36418.0000 - fn: 6761.0000 - tp: 37179.0000 - fp: 7830.0000 - accuracy: 0.8345 - recall: 0.8461 - precision: 0.8260 - auc: 0.9143
Model: "sequential_17"
_________________________________________________________________
 Layer (type)                Output Shape              Param #
=================================================================
 conv2d_34 (Conv2D)          (None, 126, 126, 6)       168
 batch_normalization_68 (Bat  (None, 126, 126, 6)      24
 chNormalization)
 max_pooling2d_34 (MaxPoolin  (None, 63, 63, 6)        0
 g2D)
 dropout_32 (Dropout)        (None, 63, 63, 6)         0
 conv2d_35 (Conv2D)          (None, 61, 61, 16)        880
 batch_normalization_69 (Bat  (None, 61, 61, 16)       64
 chNormalization)
 max_pooling2d_35 (MaxPoolin  (None, 30, 30, 16)       0
 g2D)
 flatten_17 (Flatten)        (None, 14400)             0
 dense_51 (Dense)            (None, 100)               1440100
 batch_normalization_70 (Bat  (None, 100)              400
 chNormalization)
 dropout_33 (Dropout)        (None, 100)               0
 dense_52 (Dense)            (None, 10)                1010
 batch_normalization_71 (Bat  (None, 10)               40
 chNormalization)
 dense_53 (Dense)            (None, 1)                 11
=================================================================
Total params: 1,442,697
Trainable params: 1,442,433
Non-trainable params: 264
_________________________________________________________________
Epoch 1/4





































87/87 [==============================] - 3s 23ms/steploss: 0.4033 - tn: 45285.0000 - fn: 8649.0000 - tp: 46276.0000 - fp: 10025.0000 - accuracy: 0.8306 - recall: 0.8425 - precision: 0.8219 - auc: 0.9112
Model: "sequential_18"
_________________________________________________________________
 Layer (type)                Output Shape              Param #
=================================================================
 conv2d_36 (Conv2D)          (None, 126, 126, 6)       168
 batch_normalization_72 (Bat  (None, 126, 126, 6)      24
 chNormalization)
 max_pooling2d_36 (MaxPoolin  (None, 63, 63, 6)        0
 g2D)
 dropout_34 (Dropout)        (None, 63, 63, 6)         0
 conv2d_37 (Conv2D)          (None, 61, 61, 16)        880
 batch_normalization_73 (Bat  (None, 61, 61, 16)       64
 chNormalization)
 max_pooling2d_37 (MaxPoolin  (None, 30, 30, 16)       0
 g2D)
 flatten_18 (Flatten)        (None, 14400)             0
 dense_54 (Dense)            (None, 100)               1440100
 batch_normalization_74 (Bat  (None, 100)              400
 chNormalization)
 dropout_35 (Dropout)        (None, 100)               0
 dense_55 (Dense)            (None, 10)                1010
 batch_normalization_75 (Bat  (None, 10)               40
 chNormalization)
 dense_56 (Dense)            (None, 1)                 11
=================================================================
Total params: 1,442,697
Trainable params: 1,442,433
Non-trainable params: 264
_________________________________________________________________
Epoch 1/4






































87/87 [==============================] - 2s 16ms/steploss: 0.3709 - tn: 54385.0000 - fn: 10289.0000 - tp: 55621.0000 - fp: 11987.0000 - accuracy: 0.8316 - recall: 0.8439 - precision: 0.8227 - auc: 0.9118
…
87/87 [==============================] - 3s 31ms/steploss: 0.1510 - tn: 10393.0000 - fn: 494.0000 - tp: 10491.0000 - fp: 669.0000 - accuracy: 0.9472 - recall: 0.9550 - precision: 0.9401 - auc: 0.9846
[34m[1mwandb[39m[22m: [33mWARNING[39m No validation_data set, pass a generator to the callback.
689/689 [==============================] - 89s 127ms/step - loss: 0.1510 - tn: 10393.0000 - fn: 494.0000 - tp: 10491.0000 - fp: 669.0000 - accuracy: 0.9472 - recall: 0.9550 - precision: 0.9401 - auc: 0.9846
Model: "sequential_19"
_________________________________________________________________
 Layer (type)                Output Shape              Param #
=================================================================
 conv2d_38 (Conv2D)          (None, 126, 126, 6)       168
 batch_normalization_76 (Bat  (None, 126, 126, 6)      24
 chNormalization)
 max_pooling2d_38 (MaxPoolin  (None, 63, 63, 6)        0
 g2D)
 dropout_36 (Dropout)        (None, 63, 63, 6)         0
 conv2d_39 (Conv2D)          (None, 61, 61, 16)        880
 batch_normalization_77 (Bat  (None, 61, 61, 16)       64
 chNormalization)
 max_pooling2d_39 (MaxPoolin  (None, 30, 30, 16)       0
 g2D)
 flatten_19 (Flatten)        (None, 14400)             0
 dense_57 (Dense)            (None, 100)               1440100
 batch_normalization_78 (Bat  (None, 100)              400
 chNormalization)
 dropout_37 (Dropout)        (None, 100)               0
 dense_58 (Dense)            (None, 10)                1010
 batch_normalization_79 (Bat  (None, 10)               40
 chNormalization)
 dense_59 (Dense)            (None, 1)                 11
=================================================================
Total params: 1,442,697
Trainable params: 1,442,433
Non-trainable params: 264
_________________________________________________________________
Epoch 1/10







































689/689 [==============================] - ETA: 0s - loss: 0.3855 - tn: 19479.0000 - fn: 2312.0000 - tp: 19658.0000 - fp: 2645.0000 - accuracy: 0.8876 - recall: 0.8948 - precision: 0.8814 - auc: 0.9559Model: "sequential_20"
_________________________________________________________________
 Layer (type)                Output Shape              Param #
=================================================================
 conv2d_40 (Conv2D)          (None, 126, 126, 6)       168
 batch_normalization_80 (Bat  (None, 126, 126, 6)      24
 chNormalization)
 max_pooling2d_40 (MaxPoolin  (None, 63, 63, 6)        0
 g2D)
 dropout_38 (Dropout)        (None, 63, 63, 6)         0
 conv2d_41 (Conv2D)          (None, 61, 61, 16)        880
 batch_normalization_81 (Bat  (None, 61, 61, 16)       64
 chNormalization)
 max_pooling2d_41 (MaxPoolin  (None, 30, 30, 16)       0
 g2D)
 flatten_20 (Flatten)        (None, 14400)             0
 dense_60 (Dense)            (None, 100)               1440100
 batch_normalization_82 (Bat  (None, 100)              400
 chNormalization)
 dropout_39 (Dropout)        (None, 100)               0
 dense_61 (Dense)            (None, 10)                1010
 batch_normalization_83 (Bat  (None, 10)               40
 chNormalization)
 dense_62 (Dense)            (None, 1)                 11
=================================================================
Total params: 1,442,697
Trainable params: 1,442,433
Non-trainable params: 264
_________________________________________________________________
Epoch 1/10






























































87/87 [==============================] - 11s 87ms/steposs: 0.3860 - tn: 28353.0000 - fn: 3962.0000 - tp: 28993.0000 - fp: 4833.0000 - accuracy: 0.8670 - recall: 0.8798 - precision: 0.8571 - auc: 0.9421
Model: "sequential_21"
_________________________________________________________________
 Layer (type)                Output Shape              Param #
=================================================================
 conv2d_42 (Conv2D)          (None, 126, 126, 6)       168
 batch_normalization_84 (Bat  (None, 126, 126, 6)      24
 chNormalization)
 max_pooling2d_42 (MaxPoolin  (None, 63, 63, 6)        0
 g2D)
 dropout_40 (Dropout)        (None, 63, 63, 6)         0
 conv2d_43 (Conv2D)          (None, 61, 61, 16)        880
 batch_normalization_85 (Bat  (None, 61, 61, 16)       64
 chNormalization)
 max_pooling2d_43 (MaxPoolin  (None, 30, 30, 16)       0
 g2D)
 flatten_21 (Flatten)        (None, 14400)             0
 dense_63 (Dense)            (None, 100)               1440100
 batch_normalization_86 (Bat  (None, 100)              400
 chNormalization)
 dropout_41 (Dropout)        (None, 100)               0
 dense_64 (Dense)            (None, 10)                1010
 batch_normalization_87 (Bat  (None, 10)               40
 chNormalization)
 dense_65 (Dense)            (None, 1)                 11
=================================================================
Total params: 1,442,697
Trainable params: 1,442,433
Non-trainable params: 264
_________________________________________________________________
Epoch 1/10


























































87/87 [==============================] - 5s 43ms/steploss: 0.3653 - tn: 37224.0000 - fn: 5398.0000 - tp: 38542.0000 - fp: 7024.0000 - accuracy: 0.8591 - recall: 0.8772 - precision: 0.8458 - auc: 0.9362
…
