Model: "sequential"
_________________________________________________________________
 Layer (type)                Output Shape              Param #
=================================================================
 conv2d (Conv2D)             (None, 126, 126, 6)       168
 batch_normalization (BatchN  (None, 126, 126, 6)      24
 ormalization)
 max_pooling2d (MaxPooling2D  (None, 63, 63, 6)        0
 )
 dropout (Dropout)           (None, 63, 63, 6)         0
 conv2d_1 (Conv2D)           (None, 61, 61, 16)        880
 batch_normalization_1 (Batc  (None, 61, 61, 16)       64
 hNormalization)
 max_pooling2d_1 (MaxPooling  (None, 30, 30, 16)       0
 2D)
 flatten (Flatten)           (None, 14400)             0
 dense (Dense)               (None, 32)                460832
 batch_normalization_2 (Batc  (None, 32)               128
 hNormalization)
 dropout_1 (Dropout)         (None, 32)                0
 dense_1 (Dense)             (None, 32)                1056
 batch_normalization_3 (Batc  (None, 32)               128
 hNormalization)
 dense_2 (Dense)             (None, 1)                 33
=================================================================
Total params: 463,313
Trainable params: 463,141
Non-trainable params: 172
_________________________________________________________________
Epoch 1/5































689/689 [==============================] - ETA: 0s - loss: 0.6736 - accuracy: 0.6698INFO:tensorflow:Assets written to: d:\Tensorflow Basics\Car Price Prediction\wandb\run-20230801_162410-8lw75gc0\files\model-best\assets
…
