Model: "sequential_25"
_________________________________________________________________
 Layer (type)                Output Shape              Param #
=================================================================
 conv2d_44 (Conv2D)          (None, 126, 126, 6)       168
 batch_normalization_88 (Bat  (None, 126, 126, 6)      24
 chNormalization)
 max_pooling2d_44 (MaxPoolin  (None, 63, 63, 6)        0
 g2D)
 dropout_42 (Dropout)        (None, 63, 63, 6)         0
 conv2d_45 (Conv2D)          (None, 61, 61, 16)        880
 batch_normalization_89 (Bat  (None, 61, 61, 16)       64
 chNormalization)
 max_pooling2d_45 (MaxPoolin  (None, 30, 30, 16)       0
 g2D)
 flatten_22 (Flatten)        (None, 14400)             0
 dense_66 (Dense)            (None, 100)               1440100
 batch_normalization_90 (Bat  (None, 100)              400
 chNormalization)
 dropout_43 (Dropout)        (None, 100)               0
 dense_67 (Dense)            (None, 10)                1010
 batch_normalization_91 (Bat  (None, 10)               40
 chNormalization)
 dense_68 (Dense)            (None, 1)                 11
=================================================================
Total params: 1,442,697
Trainable params: 1,442,433
Non-trainable params: 264
