Model: "sequential"
_________________________________________________________________
 Layer (type)                Output Shape              Param #
=================================================================
 conv2d (Conv2D)             (None, 126, 126, 6)       168
 batch_normalization (BatchN  (None, 126, 126, 6)      24
 ormalization)
 max_pooling2d (MaxPooling2D  (None, 63, 63, 6)        0
 )
 dropout (Dropout)           (None, 63, 63, 6)         0
 conv2d_1 (Conv2D)           (None, 61, 61, 16)        880
 batch_normalization_1 (Batc  (None, 61, 61, 16)       64
 hNormalization)
 max_pooling2d_1 (MaxPooling  (None, 30, 30, 16)       0
 2D)
 flatten (Flatten)           (None, 14400)             0
 dense (Dense)               (None, 16)                230416
 batch_normalization_2 (Batc  (None, 16)               64
 hNormalization)
 dropout_1 (Dropout)         (None, 16)                0
 dense_1 (Dense)             (None, 16)                272
 batch_normalization_3 (Batc  (None, 16)               64
 hNormalization)
 dense_2 (Dense)             (None, 1)                 17
=================================================================
Total params: 231,969
Trainable params: 231,861
Non-trainable params: 108
_________________________________________________________________
Epoch 1/5








































689/689 [==============================] - ETA: 0s - loss: 0.6106 - accuracy: 0.6807
WARNING:absl:Found untraced functions such as _jit_compiled_convolution_op, _jit_compiled_convolution_op while saving (showing 2 of 2). These functions will not be directly callable after loading.
…
