Model: "sequential_1"
_________________________________________________________________
 Layer (type)                Output Shape              Param #
=================================================================
 conv2d_2 (Conv2D)           (None, 126, 126, 6)       168
 batch_normalization_4 (Batc  (None, 126, 126, 6)      24
 hNormalization)
 max_pooling2d_2 (MaxPooling  (None, 63, 63, 6)        0
 2D)
 dropout_1 (Dropout)         (None, 63, 63, 6)         0
 conv2d_3 (Conv2D)           (None, 61, 61, 16)        880
 batch_normalization_5 (Batc  (None, 61, 61, 16)       64
 hNormalization)
 max_pooling2d_3 (MaxPooling  (None, 30, 30, 16)       0
 2D)
 flatten_1 (Flatten)         (None, 14400)             0
 dense_3 (Dense)             (None, 100)               1440100
 batch_normalization_6 (Batc  (None, 100)              400
 hNormalization)
 dropout_2 (Dropout)         (None, 100)               0
 dense_4 (Dense)             (None, 10)                1010
 batch_normalization_7 (Batc  (None, 10)               40
 hNormalization)
 dense_5 (Dense)             (None, 1)                 11
=================================================================
Total params: 1,442,697
Trainable params: 1,442,433
Non-trainable params: 264
_________________________________________________________________
[34m[1mwandb[39m[22m: [33mWARNING[39m The save_model argument by default saves the model in the HDF5 format that cannot save custom objects like subclassed models and custom layers. This behavior will be deprecated in a future release in favor of the SavedModel format. Meanwhile, the HDF5 model is saved as W&B files and the SavedModel as W&B Artifacts.
…
