Model: "sequential"
_________________________________________________________________
 Layer (type)                Output Shape              Param #
=================================================================
 conv2d (Conv2D)             (None, 126, 126, 6)       168
 batch_normalization (BatchN  (None, 126, 126, 6)      24
 ormalization)
 max_pooling2d (MaxPooling2D  (None, 63, 63, 6)        0
 )
 dropout (Dropout)           (None, 63, 63, 6)         0
 conv2d_1 (Conv2D)           (None, 61, 61, 16)        880
 batch_normalization_1 (Batc  (None, 61, 61, 16)       64
 hNormalization)
 max_pooling2d_1 (MaxPooling  (None, 30, 30, 16)       0
 2D)
 flatten (Flatten)           (None, 14400)             0
 dense (Dense)               (None, 16)                230416
 batch_normalization_2 (Batc  (None, 16)               64
 hNormalization)
 dropout_1 (Dropout)         (None, 16)                0
 dense_1 (Dense)             (None, 64)                1088
 batch_normalization_3 (Batc  (None, 64)               256
 hNormalization)
 dense_2 (Dense)             (None, 1)                 65
=================================================================
Total params: 233,025
Trainable params: 232,821
Non-trainable params: 204
_________________________________________________________________
Epoch 1/5



















688/689 [============================>.] - ETA: 0s - loss: 0.5276 - accuracy: 0.8243

688/689 [============================>.] - ETA: 0s - loss: 0.5276 - accuracy: 0.8243INFO:tensorflow:Assets written to: d:\Tensorflow Basics\Car Price Prediction\wandb\run-20230801_155920-29s3026m\files\model-best\assets
…
